CNNafterQTransform.pt (torch, 499631 bytes, 16 tensors)

conv_1.weight f4 [4, 1, 5, 5]
00000000: be46 40be aa30 4dbe f9fb 98be a2b2 ddbe
00000010: 3c07 e9be fc35 82bd f4b5 0dbe a07a 52be
00000020: 476d 30be 4661 8cbe 5920 ce3e f495 473d
00000030: 7050 d03e bda1 423f 57bb e93e b698 7ebe
00000040: 6b48 91be 8989 61be a84d 643e b385 16bf
00000050: 1dd7 353e dd31 d63c dddf 2a3d 1d7f 883d
00000060: c23e db3d 337a 25bf 9db0 133f 405a 09bd
00000070: e832 f7bc 4c38 37bd 6c54 cbbd 288c de3e
00000080: 0572 b63e 98e5 163f eec1 b73e 044a 003d
00000090: 1759 d43d aead 2e3e 3e91 453e 30d7 1c3e
000000a0: c108 02be c6ed 9bbe f089 ddbe 906a f0be
000000b0: da0f d1be c526 503c 0f55 4cbd 0e68 2dbd
000000c0: ada5 cfbd 7b7f 44bd 391d 24be 0207 703e
000000d0: 7afa d23e d0bc 3b3f 7324 7d3e 0cde 11bd
000000e0: d94f e2bd 6b70 ba3c 8035 fe3d 3813 263d
000000f0: 5c1c babe 18be 0dbf b0b1 31bf 5119 4ebf
00000100: 5da0 57bf 54e0 183e fb3c 393e dde0 e43d
00000110: 7ac7 093e 8286 b73e a8a5 63bd 9b40 9fbd
00000120: 1166 bdbd d40b f7bd 3b49 77be bf34 e1bd
00000130: 6d5e 9a3e 9929 103d e412 b1bd 04cc d7bd
00000140: 47f8 64be e568 62be 471a a4be 8838 eabe
00000150: a2bf 09bf a7ef 0ebe 5044 44be 4099 87be
00000160: 408c babe 6257 d2be 34b5 2e3e 0263 5e3d
00000170: 4543 403e c15f c73e c57a 803e f4b9 7f3e
00000180: b124 07bf 35cc 483f b65a c53e 7b98 c5bd
-0.18776986 -0.20038095 -0.2987974 -0.4330035 -0.45513332 -0.06357953 -0.13838941 -0.2055459
-0.17229186 -0.27417964 0.40259054 0.04872699 0.4068637 0.76028043 0.4565074 -0.24862942
-0.28375563 -0.22025122 0.22295249 -0.5879776 0.1775784 0.026146824 0.0417174 0.0666487
0.107053295 -0.64639586 0.57691365 -0.033533335 -0.030175641 -0.044731423 -0.099282116 0.43466306
0.35633865 0.5894408 0.35890144 0.031320587 0.10368555 0.17058441 0.19293687 0.15316463
-0.12698652 -0.30454844 -0.432693 -0.469563 -0.40832406 0.012704556 -0.049885806 -0.042335562
-0.10139022 -0.047973137 -0.16026773 0.23440173 0.41206723 0.7333498 0.24720936 -0.03561215
-0.11050386 0.022758683 0.12412548 0.040545672 -0.3634976 -0.55368185 -0.69411755 -0.8050738
-0.8422907 0.14929324 0.18089668 0.11175702 0.13455 0.3584481 -0.055577904 -0.077759944
-0.09247983 -0.12062803 -0.24149029 -0.10996389 0.30150166 0.03519592 -0.08646181 -0.1053696
-0.22360335 -0.22110327 -0.32051298 -0.45746255 -0.53808033 -0.13958608 -0.19166684 -0.26484108
-0.36435127 -0.41082293 0.17061311 0.05429364 0.18775661 0.38940242 0.25093666 0.24973279
-0.5279036 0.78436595 0.3854577 -0.09648224

conv_1.bias f4 [4]
00000000: f058 84c0 7445 50c0 fe7a 09c0 baae 0dc0
-4.1358566 -3.254239 -2.1481318 -2.2137895

batch_1.weight f4 [4]
00000000: 1eb2 853f 8b19 103f c048 823f dcfd 863f
1.0444982 0.56288975 1.0178452 1.0546222

batch_1.bias f4 [4]
00000000: 5d1e 0e3f 023a 3cbf 24c7 80ba afc5 91be
0.5551508 -0.7352601 -0.0009824974 -0.28471133

batch_1.running_mean f4 [4]
00000000: a264 f141 b2ec 9340 9f5b 3242 a350 1d42
30.174137 4.6226435 44.589474 39.328747

batch_1.running_var f4 [4]
00000000: a678 c743 2485 b242 65da 4a44 b788 2744
398.94257 89.26004 811.4124 670.13617

conv_2.weight f4 [8, 4, 5, 5]
00000000: 1600 b3bc 4f3f a5bc 3a27 803d 6b65 943d
00000010: 7e67 73bd 814d 553d 4bb2 813d 1a36 3f3e
00000020: 3994 d83d 216c 353e be7d 3bbe 3945 31bd
00000030: 2eb8 e73d 068c 633e 578c a53d 5c63 37be
00000040: d270 c1be 0f8c 19bf 1514 7fbf d817 7cbf
00000050: 786c 94bd 1eae ad3d 5a6f f23d f110 443e
00000060: 69f4 623e 6f1a de3d 2e17 833c e49a c43d
00000070: 313e d53d 9d00 f43d 3c8e fcbd f03f a03d
00000080: 9c61 013e b5d0 163e 222b 573e ac55 f7bd
00000090: 6d60 e0be 3a98 53bf 9072 abbf 294a b8bf
000000a0: bc7e 8fbd 4a13 123e aa1b 953d 9e59 d53d
000000b0: 477e 853e 73a5 7a3d 4ec6 083a a087 323c
000000c0: f1be 0b3d 8eec 123e ced9 83bd 65ab 40bd
000000d0: 3bbb 7fbd d272 69bd f376 92bd 8f19 dcbd
000000e0: 4cbd dfbd 346c 40be 678d b2be 7f0b 03bf
000000f0: d860 9f3e 6409 0d3e 9c55 a1bc 3f37 293d
00000100: 3a14 4f3e b1b1 e13d a47a b73e e829 013f
00000110: ada6 143f 4699 863f e068 fe3d 5ade 89bd
00000120: d1fe 56be 49ba 78be 4986 bcbe 463f 40bd
00000130: 0046 7cbd 5554 c5bd 8b8c 48bd 923a 35be
00000140: cd77 023e c84f 133e 27aa e13c 6d1e 00bd
00000150: aabd bfbd e9fd b03d 314f 933e f267 d13e
00000160: 5410 c73e 99c5 1a3f 7c78 0e3e 09ed 4c3c
00000170: 2ce4 3bbe d865 b2be d7f2 9abe c35b f8bd
00000180: 33c8 063c b268 f53c 5db6 f4bc 81f8 f7bd
00000190: 600f 373e ed25 a93d 95b1 73be 3379 5ebf
000001a0: dbc0 5cbf cfc0 be3d 3f90 803e 8a77 983e
000001b0: bb78 f73e 0168 0b3f 2ba2 65be 8fbd 733d
000001c0: 6ec2 5c3d 0da1 a2bd 1374 67bd 67ba f83c
000001d0: 3496 653d a3dd 423d b5cc 5cbd 9a1b 3f3d
000001e0: 86c0 0cbe 245d a63d d56a 9e3c d2c4 ab3d
000001f0: 2576 943d 03ca d03e ed33 ba3d 5a64 b4bc
00000200: 2ae5 3e3e 54b1 4a3f 7413 87bd 5017 3cbe
00000210: 2700 93be 3d10 b6be 74cb 3fbf 2efd c8bd
00000220: 91b7 57be 8da6 0dbe 3e68 eabd e06f b2be
00000230: 1dd1 44bd 0401 8fbd 789e d1bd 906e 01bd
00000240: 563a 72be c689 19bd 16ec 23be 4735 10be
00000250: bcc8 e7bd d4bb a5be 57bf bbbe d4a4 f43c
00000260: 9cd7 683e ed2b e03e 8eae 793f 771c 44bd
00000270: d58c abbd 1fc2 39be 0b9e 98be a42c f63d
00000280: 6213 ed3d a3dd fa3d c1ee 133e fda5 3f3e
00000290: af34 a33e 0963 a6bd cb0b 813d 5e92 fd3d
000002a0: d5c6 3b3c 6c3a 9fbd a52d f73c 3bcd b13d
000002b0: 09dc c53d b608 413e 8985 693e a23f 7ebd
000002c0: ac4d 56be c8fd 02bf 7980 46bf 8dcd 4cbf
000002d0: 2467 e23d 123d 423e 5815 1a3e 2b32 c7bd
000002e0: 43e7 343e 6e62 e8bd d4b4 f2bd 8fd7 033d
000002f0: beba b5bd 4a79 873d 99ac 3b3d b898 053a
00000300: 82f9 f33b 5d2f acbd f05d 52be b755 97be
00000310: b2bb ce3d 7321 323e 71a8 8a3e 8477 ce3e
00000320: b269 553d e439 8c3d 87fb 0d3d 0fb6 e73d
00000330: 9ccb 6d3c 7a67 113e f302 b63e 0a5e c13e
00000340: 1f2a bb3e 65da 1a3f 35e7 a43e 609f 913e
00000350: 043f 3e3e 66e5 f83d 5347 0b3e 0fb8 5ebe
00000360: f18b aabd a7a8 35be 5b31 c5be c81d c2be
00000370: 865a 2c3b ae4e 0a3e edd2 03bc ad64 17bd
00000380: 4b3e b33d 2f65 e43e 860a 113e ba71 1e3e
00000390: c437 623e e035 ad3e b550 80bc fbc4 d53d
000003a0: 6af9 0e3e 61c1 9f3d 6667 e73e ffc6 11bd
000003b0: d48b dcbd da0f 26be 2da3 7dbd fd53 16be
000003c0: 9585 26be 4735 00be d402 3ebe e894 88be
000003d0: 2222 7fbe 1cab 6c3d a993 583d c611 633d
000003e0: 60b7 903d 81b3 cd3c 09a2 4ebe ca6c 2a3d
000003f0: 4666 42bd c231 d33d 7bd1 963e 0ecb acbe
-0.021850627 -0.02017179 0.06257482 0.072459064 -0.05942487 0.052075867 0.06332835 0.18672982
0.10575146 0.17717029 -0.18309686 -0.043278906 0.11314426 0.22221383 0.08083408 -0.17908996
-0.37781388 -0.5997934 -0.9964002 -0.9847388 -0.07247251 0.08480476 0.11837645 0.19147088
0.22163548 0.108448856 0.016002264 0.095998555 0.10412253 0.119141795 -0.123318166 0.07824695
0.12634891 0.14728053 0.21012548 -0.120768875 -0.43823567 -0.82654154 -1.3394337 -1.4397632
-0.070065945 0.1426517 0.07280667 0.10417484 0.26072904 0.06119294 0.0005217538 0.010896593
0.034117643 0.14348051 -0.06438027 -0.047038455 -0.062434416 -0.056994267 -0.07151594 -0.107470624
-0.109247774 -0.18791276 -0.34873506 -0.51189417 0.31128573 0.13773113 -0.019694142 0.041312452
0.2022256 0.1102022 0.35835755 0.5045457 0.5806683 1.0515525 0.12422347 -0.06731863
-0.20995642 -0.24289812 -0.368212 -0.046935342 -0.061590195 -0.09635226 -0.048962157 -0.17698124
0.12741013 0.14385903 0.027546955 -0.031279016 -0.093623474 0.086421795 0.28771356 0.40899616
0.38879645 0.6045776 0.13913149 0.012507685 -0.1834876 -0.34843326 -0.30263397 -0.12126877
0.008226442 0.02995715 -0.029872114 -0.12107945 0.17876959 0.08259187 -0.23798211 -0.86903685
-0.86231774 0.09314119 0.2511005 0.297787 0.48334298 0.5445557 -0.22425143 0.05950695
0.05389636 -0.07940874 -0.05650718 0.030362321 0.056051448 0.04757465 -0.05390616 0.046657182
-0.13745317 0.08123234 0.01933805 0.0838715 0.07249097 0.40779123 0.09091935 -0.022020508
0.18642107 0.7917683 -0.06595507 -0.18368268 -0.28711054 -0.35559264 -0.7491982 -0.09813915
-0.21066119 -0.13833065 -0.11445664 -0.3485098 -0.04805099 -0.069826156 -0.10235304 -0.03159958
-0.23655066 -0.037484907 -0.16008028 -0.14082824 -0.11317584 -0.32369864 -0.36669418 0.029863752
0.22738498 0.43783513 0.97531974 -0.04787871 -0.08376471 -0.18140458 -0.29808077 0.12020233
0.115759626 0.12249305 0.14446546 0.18715663 0.31876132 -0.08124358 0.063010775 0.12381433
0.0114609795 -0.07774815 0.030173132 0.08681723 0.09661109 0.18850979 0.22804846 -0.062072404
-0.20928067 -0.5116849 -0.77539784 -0.80001146 0.11054829 0.18968609 0.15047204 -0.09726366
0.17666344 -0.11346899 -0.118508965 0.032187995 -0.08873509 0.06614931 0.0458189 0.0005096304
0.007445515 -0.08407471 -0.20543647 -0.29557583 0.10094394 0.17395572 0.27081636 0.40325558
0.052102752 0.06846979 0.034663703 0.11314022 0.014513876 0.1419963 0.35549125 0.3776706
0.36555573 0.60489494 0.32207647 0.28441906 0.18578726 0.12153129 0.13601427 -0.217499
-0.08327473 -0.17740117 -0.38514218 -0.37913346 0.0026299073 0.13506576 -0.008045894 -0.036961246
0.08752116 0.44608447 0.1416417 0.1547307 0.22091585 0.33830166 -0.015663484 0.10437962
0.13962331 0.07800556 0.45196074 -0.035590168 -0.107688576 -0.16216984 -0.061923195 -0.14680476
-0.16261895 -0.12520324 -0.18555766 -0.26676106 -0.24915364 0.05778037 0.052875195 0.055436872
0.07066226 0.025110008 -0.20178999 0.041607656 -0.047460817 0.10312225 0.29456696 -0.33748668

conv_2.bias f4 [8]
00000000: 2c08 2cbe c78f 3b40 63a3 903f 7e02 0c3f
00000010: 6470 0540 94ac 583e 5aed 0040 8352 833e
-0.16799992 2.9306505 1.1299862 0.546913 2.0849848 0.21159583 2.0144868 0.2564889

batch_2.weight f4 [8]
00000000: db32 f73c 84a5 f43c 24e1 0a3d b4ac 283d
00000010: 9aa4 0d3d 5973 273d 3e4d 173d f58b 043d
0.030175617 0.02986408 0.033906117 0.041180328 0.034580804 0.04088149 0.0369389 0.032360036

batch_2.bias f4 [8]
00000000: 7f6f acbc b095 babc fa22 cbbc 717c bcbc
00000010: 06c7 f1bb 99df 98bc 02c9 d3bc ef5a f1bc
-0.02104926 -0.022776455 -0.024796952 -0.023008557 -0.007378462 -0.018661307 -0.025852684 -0.029462306

batch_2.running_mean f4 [8]
00000000: 909d 573f ba9f a640 ccd3 1840 8545 7a40
00000010: 096d be40 7fe4 a63f df81 9840 2b01 4d40
0.84224796 5.206998 2.387927 3.9104931 5.95081 1.3038481 4.7658534 3.2031963

batch_2.running_var f4 [8]
00000000: 0930 0740 3b56 4e41 452d 9540 eff9 3041
00000010: b4a7 3041 a68c 6f40 9413 6841 21a2 1741
2.1123068 12.896052 4.661776 11.061019 11.040943 3.7429595 14.50478 9.477082

linear_1.weight f4 [128, 912]
00000000: ecf9 ad3d 1872 0d3e d895 57bd dd49 f9bb
00000010: 8a89 ad3c e02a 723c 5d00 dfbe 70ee b1be
00000020: 07f2 d8be d594 5ebe 1707 40be 9889 babe
00000030: 31df cabc d770 a53d 1f31 133e f91d e73d
00000040: 345d 853e 129e 703e f195 003e 026b 20bb
00000050: 53bc fd3d f8d5 aa3d deac 00bd 4d3b 443c
00000060: 0eda 20be a706 26be 6e30 7a3d 1b35 69be
00000070: 2f72 503d e785 b13d 9590 d63c e3df 7dbe
00000080: dff8 22be 8a54 f4bd a9de 5abd f6f0 71bd
00000090: 6a0e 56be d77d aebe 5ae3 c8be 9386 463d
000000a0: 684b 44bd 0dff 98be 7e5b 2a3d df5b 65be
000000b0: a385 21be 3f46 23be bc4a 7ebe 4b57 b2bd
000000c0: 4bab 463e 3c62 1b3e 6726 3b3e e1b9 d43e
000000d0: 539f 343e 7ff4 6c3e 8c9b 02be 7b6c 213c
000000e0: c17a 1bbc 3ea4 a63d 747f e33d 8b9c bdbc
000000f0: 4a03 82be 8bc6 8dbe b996 98be 6f73 6ebe
00000100: 0df6 85be 62c8 25be 3424 9b3d 9fbb 433d
00000110: 0f8c dc3d 9b8a 4f3d 516f 9c3e 074d a43e
00000120: 4236 81be 9183 fdbd e1e8 71be acc0 a6bd
00000130: 96ed 62be be77 a3bd f41d ac3d feaf df3d
00000140: b09a b3bd 0fd2 0dbd 1504 25be 5efb 7a3c
00000150: 79fe db3d 8be6 1f3e 36dd e63d afb1 383e
00000160: 2fe6 fc3c edd9 f33d 1ae4 36be 3ea0 a4bd
00000170: 5735 c7bc 860e 2b3e f6e2 3cbd 0e2c 7d3d
00000180: e805 b93d af0a 0c3e 4153 4b3e 4b25 af3d
00000190: 7d99 febd bb99 083e c923 37be a56a 5ebe
000001a0: 4bc9 9abd c38d 5cbe 60ae 14be 7780 66be
000001b0: 183e 6abd 4a8d 0cbe d997 c7bc 91cc 2e3e
000001c0: e1b9 84bc 9e4e c1bc b7b3 babd 1a13 113e
000001d0: 853e 9b3e bf75 8f3c 099c 1f3e 2ad9 b83e
000001e0: a20c e43e 67b5 2b3d 5a54 833e 8af1 89bd
000001f0: c223 6e3d ae5c 393e 19a5 b83e 21f5 853e
00000200: ee64 b73d 9d53 ee3d d684 853e 4f75 913e
00000210: f996 4bbe 2b6b d8be 562b c1be 28df 6dbe
00000220: 06e1 a8be 0750 7ebe bfd5 83be c3ee 6fbe
00000230: b6e1 ae3d 5c7e d33d f601 8dbd fd25 0cbc
00000240: a441 66ba bf4c 353e aabd dc3d 2785 6e3d
00000250: cf65 be3d 1071 3d3c bdd5 9cbd 76b0 ba3d
00000260: 33eb b43c 67c6 c5bc e125 17be 5efa 8dbe
00000270: b622 f13c fc85 8c3d 2fbf cc3d 1faf 41bc
00000280: cc6a e23c 4831 03bd 1ec0 ad3e 3c01 783e
00000290: 836f 753e c755 883e e104 d13c b0e3 393e
000002a0: ca94 2ebd 2362 383d 5a23 123e 9cc9 8a3e
000002b0: 94fc ff3d 13c5 853d 1e41 a7be de49 59be
000002c0: 355b 2bbe dde7 b2be b0cb 0ebd 6d1c b0be
000002d0: 5ee9 c0be b7d5 d2be de74 e3be 9b53 a5be
000002e0: 9484 9ebe b048 c1be 1702 4d3c 3bdb 8c3e
000002f0: dff3 c93e c732 b23e 35ca 783e f5a8 b13e
00000300: e16a 44be edbe bebe fe2e c7be 9462 06bf
00000310: 24ee 1cbf 37cd 1bbf c7c8 1a3d 0c4f 34bd
00000320: 79a5 6bbd 0508 633e c002 dc3d d411 4cbd
00000330: 72c9 963e 2016 883d ce5e c43d b8c1 b03e
00000340: db14 0c3e 432a a63e 745c be3e a428 293e
00000350: f7bb 80be 99fc 05bf 8a8e c6be 8090 8bbd
00000360: 47d7 e8bd 730d 99be 4a68 41be 7ecb 90be
00000370: 1984 59be 995f a4be 7b9f 633e 5c7b ee3e
00000380: 64d8 3a3e 3c2c 9a3e eec2 943e d74e afbb
00000390: c4c0 44be c742 babd 749b cebc 8a18 fa3b
000003a0: 2095 43be 16b4 b9bc a524 863e 7036 6c3e
000003b0: 6e4f 253e f6f8 653c e0f0 36be d1f9 33bd
000003c0: acd8 953c 573a 1cbd 2bab 76bb 7185 df3d
000003d0: aef7 1bbe 9639 3abe 623f 813a 6fc8 ddbd
000003e0: 5d9d 01be 4bce 7abd 9126 21be 67c6 1bbd
000003f0: 507a 2d3e 3364 b63d 58cd d93d b012 b13d
0.084949344 0.13813055 -0.052633137 -0.007607682 0.021183748 0.01478073 -0.43554965 -0.34752226
-0.42372152 -0.21736462 -0.18752705 -0.364331 -0.02476463 0.08078163 0.14374207 0.11285014
0.2604767 0.23497799 0.12557198 -0.0024477844 0.123894356 0.083415926 -0.03141486 0.011977029
-0.15708181 -0.16213475 0.061081342 -0.22774164 0.050890144 0.08668118 0.026191989 -0.24792437
-0.1591525 -0.11930187 -0.053435 -0.05906769 -0.20903936 -0.34080383 -0.39235955 0.048468184
-0.047923476 -0.29882088 0.04159116 -0.22398327 -0.15773635 -0.15944766 -0.24833196 -0.08708056
0.1940128 0.15174192 0.18276368 0.41548064 0.17638902 0.23140143 -0.12754649 0.009852524
-0.009489716 0.081367955 0.11108294 -0.023145935 -0.25393134 -0.2769054 -0.29802492 -0.23286222
-0.26164284 -0.16189721 0.075752646 0.04778635 0.107689016 0.050669294 0.30553678 0.32090017
-0.25236708 -0.1237861 -0.23623993 -0.08142218 -0.22160944 -0.079818234 0.084041506 0.1092224
-0.08769739 -0.034624156 -0.16114838 0.01531872 0.10741896 0.15615289 0.112726614 0.18036531
0.030871479 0.119068004 -0.17860451 -0.08038376 -0.024317427 0.16704759 -0.046114884 0.061809592
0.0903433 0.1367595 0.19855978 0.08552035 -0.12431619 0.13339894 -0.17884745 -0.21720369
-0.07557925 -0.21538453 -0.14519644 -0.22509943 -0.057188123 -0.13725773 -0.024364399 0.17070223
-0.016201915 -0.023597058 -0.09116309 0.14167443 0.30321136 0.0175122 0.15586866 0.36103183
0.44540888 0.041921046 0.25650293 -0.06735523 0.05813957 0.1810176 0.3606346 0.2616358
0.08954798 0.11637042 0.26077908 0.28409812 -0.1988181 -0.42269263 -0.37728375 -0.23229659
-0.3298418 -0.24835216 -0.25749013 -0.23430924 0.08539145 0.103268355 -0.0688514 -0.008553979
-0.0008783585 0.17705058 0.10778363 0.058232453 0.09296762 0.011562601 -0.07657955 0.091156885
0.022084808 -0.024142457 -0.14760543 -0.27730078 0.029435497 0.06861493 0.09997403 -0.011821537
0.027638815 -0.03202942 0.33935636 0.24219221 0.2396832 0.26627943 0.025515022 0.18153262
-0.042622365 0.045015465 0.14271298 0.2710694 0.12499347 0.065317295 -0.32666868 -0.21219584
-0.16734011 -0.34942523 -0.03486222 -0.34396687 -0.37678045 -0.41178676 -0.444251 -0.32290348
-0.30960524 -0.3775077 0.012512705 0.2751101 0.3944387 0.34804365 0.24295886 0.34699216
-0.19181396 -0.3725504 -0.3890304 -0.5249417 -0.61300874 -0.6086001 0.037789132 -0.044020697
-0.057530854 0.22171028 0.10742712 -0.04982169 0.29450566 0.06644845 0.09588395 0.34522796
0.1367983 0.32454118 0.3717991 0.1651941 -0.25143406 -0.5233856 -0.38780624 -0.068146706
-0.11369186 -0.29893073 -0.1888744 -0.28280252 -0.21241798 -0.32104185 0.22228806 0.4657849
0.18246609 0.30111873 0.2905497 -0.0053499746 -0.19214159 -0.09094768 -0.02522061 0.00763232
-0.19099855 -0.02266888 0.26199833 0.23067641 0.16143581 0.014036408 -0.17865324 -0.043939415
0.018291794 -0.038141575 -0.0037638645 0.10914124 -0.15231201 -0.1818603 0.0009860808 -0.10829245
-0.12657686 -0.061231893 -0.15737368 -0.038031008 0.1694119 0.0890583 0.10634869 0.086461425

linear_1.bias f4 [128]
00000000: 19a5 063d b874 153e 48f1 0fbe 6d45 313e
00000010: d676 46be 3a2c d83e 0ce3 7cbe e7c4 46be
00000020: 5eaa 4abe 48e8 98be 26c8 0fbe 5eed a7be
00000030: c7e9 bcbe d943 dfbe 4dc8 973d 4492 b93e
00000040: 1433 45be 5527 203e 66bf f6bd 200a 05be
00000050: 5440 ecbe cd8a 98bd baac c53d 39d7 a83e
00000060: 8b6c 233f ff35 2fbe 490a c23e 8a0d 42be
00000070: 1f39 f1bd 2d8c 7fbe 3c51 1f3f 6363 183f
00000080: ef24 a93e ca96 923e 6537 bfbf d7a6 40bd
00000090: 8518 883e f0b6 d23e 444a 503e efc6 c93e
000000a0: 8e26 0d3e 49ac 543f 9e28 063f b5ae 723d
000000b0: c27a d03e cc22 dd3e afca 183d 6a31 97bf
000000c0: 9dd8 c9be 3643 423f e7d1 03be 1905 14bd
000000d0: 8e25 613e ed94 993d f8d9 9cbc eb80 373f
000000e0: aeed 2d3e 8ab6 53be 8346 063e 6bea 883d
000000f0: 66be ab3e fbb1 9cbe 69db 9bbe f072 463e
00000100: 6c69 8ebe 0272 10bf 2f24 413f 3a9b 233e
00000110: e025 403f 6de9 2dbf 485b 293e aa32 993d
00000120: e22f 183f 80fd 413f 2649 923e 3f69 c03e
00000130: 8ab3 27bf ee05 abbe fb68 a2bd a1eb 4a3f
00000140: dd8b d43e e4f4 80bd ad15 0c3e f312 e13e
00000150: f265 59be 8e6d 113f 5e80 a3be d811 eebe
00000160: e811 103e e361 623e 4eed ac3e a103 d3be
00000170: 0dc0 2ebd 07f7 153f 4b49 bbbe 8d5c d93e
00000180: 9617 133f 61cd 383f 4b8e fd3e 9a5c 0d3f
00000190: 203a 873e f189 f83e fc22 9b3e 9d08 c03e
000001a0: f15b 87bc bc0c 8bbe b49e d5bd b1cf dc3e
000001b0: 4250 73be f0f9 99be 49b5 0d3f 0dae 13be
000001c0: b1b4 983e 776c 10bf a3dc c4be cf8d bfbe
000001d0: ca78 97be 4da6 c8bf e6b8 013f f267 85be
000001e0: 6fb6 f6be 5881 5dbe 8727 043f 7834 b03d
000001f0: e4a2 b3bd d77e 533f a746 013f 73ef 8abe
0.032872293 0.14595306 -0.14056885 0.1731164 -0.1938127 0.42221242 -0.24695987 -0.1941105
-0.19791552 -0.29864717 -0.14041194 -0.32798284 -0.36897108 -0.4360645 0.07411251 0.36244404
-0.19257766 0.15640004 -0.12048225 -0.12992144 -0.46142828 -0.07448349 0.096520856 0.32976702
0.638375 -0.17110442 0.37898472 -0.18950477 -0.11778473 -0.24955817 0.6223333 0.5952665
0.3303599 0.28630668 -1.493878 -0.04703411 0.26581207 0.41155195 0.2034083 0.39409587
0.13784239 0.83075386 0.52405727 0.059248645 0.40718657 0.4319061 0.03730267 -1.1811955
-0.39423075 0.75883806 -0.1287304 -0.036137674 0.21986982 0.074991085 -0.019146904 0.7168109
0.16985199 -0.20675102 0.13112836 0.06685337 0.335437 -0.30604538 -0.30440834 0.19379783
-0.27814806 -0.5642396 0.75445837 0.15977183 0.7505779 -0.67934304 0.16538727 0.074803665
0.59448063 0.75777435 0.28571433 0.37580296 -0.6550833 -0.33402961 -0.0793018 0.7926579
0.41512957 -0.06296709 0.13680144 0.4395977 -0.21230295 0.5680779 -0.31933874 -0.4649799
0.1406933 0.22107653 0.337748 -0.41213706 -0.042663623 0.5858006 -0.36579356 0.42453423
0.57457864 0.72188383 0.49522623 0.55219424 0.26411533 0.4854274 0.30300128 0.3750657
-0.016523333 -0.27158153 -0.10430661 0.43127206 -0.23761085 -0.300735 0.55354744 -0.14421864
0.29825357 -0.56415504 -0.38449582 -0.3741288 -0.29584342 -1.5675751 0.5067276 -0.26055866
-0.4818606 -0.21631372 0.51622814 0.086037576 -0.08771303 0.8261542 0.5049843 -0.2713581

linear_2.weight f4 [45, 128]
00000000: 84b5 98bd 254b 98bc 17e0 6ebe 961e 793e
00000010: 131d de3d 3651 71bf 7880 41be 114f 8ebd
00000020: 9357 27be b52f 223e 0d0f 82be ecd2 843e
00000030: b60a 48be 29d5 bc3e a389 babe 24aa 02bf
00000040: a8e9 763e 9dd3 cd3e 1afd 3fbe 57eb 81bf
00000050: 2923 72bf b3c3 9ebd 31e9 f5be 162a a83e
00000060: d5c1 6bbe 319c debe 2d98 7abe 02fd 8e3e
00000070: e7d5 08bf 0db6 b4be a833 f53c 7f55 0e3d
00000080: f101 89bf be01 d9be 7e6d 6e3f 40cf 8f3d
00000090: a44b 2f3e db64 02bf 0009 5b3e 675e c53d
000000a0: 3462 f1be 40e5 25be 1f0f 1d3d ce6d eabe
000000b0: 9db2 44be bd8e 21bd 8c4b ac3e 389d debf
000000c0: 31c2 96bd 5747 1abf 7078 103e 50f8 693e
000000d0: d62e 44bd 9605 06bf cd04 afbd 1ebc 6cbc
000000e0: 6622 8abf 022a 45bc 927b ff3d aa24 c13d
000000f0: ab58 943e 9b77 c7be 9583 86be 752c 883e
00000100: f33c 1a3e efd8 943e 74ba da3d fb22 aa3e
00000110: 9db6 6d3e d0cd 553e 3ef6 fbbd db9c c13e
00000120: e2e9 933d 2c1e eabe 4e10 ad3d aee2 1abf
00000130: 942a b6bf 30ed bbbe e10f cfbe dc49 b63c
00000140: 7216 f0bc 375c c7be 3dc9 25bf 7658 b23e
00000150: d24c 783e c2be ad3c cc18 d4bd 77bc 883d
00000160: 9166 dcbe 303f f93d da26 aabe 75b5 6d3e
00000170: af6b 76bf 8f71 49bf 19c7 b1bd 722c 72bf
00000180: fc11 8d3d 6c08 f5bd cd98 a43e 853c bbbe
00000190: 9598 c43e 81d2 b7be e2c3 8dbe 3da6 bdbe
000001a0: 5670 023e fcdf ea3d 1717 783d 539f c53e
000001b0: e5d5 80bd c3b0 f7bd d652 9a3e 1479 193e
000001c0: de21 61be f80d d73b 7940 84be 2bc8 81bf
000001d0: 6b11 433c 3f41 aebe 82c0 34bf d56e bfbd
000001e0: 36c7 abbe 12a9 60bd 6ac8 163c 7c1c 013e
000001f0: 415e 2e3e 041f 4cbe 06da 7f3e e129 d63d
00000200: 5d04 b13d 4d83 73bf c2a9 2abe ad7c 8c3e
00000210: 3929 56be 0003 d5bd b4c0 223e 7493 87bd
00000220: 4e83 403e 3cb3 d0bd 2fa7 3f3d eda4 fb3d
00000230: 092f e7bd 366c 843f 2f54 85be 87c8 a6be
00000240: c7dd 2fbe b0c3 22bf ef92 99be b06a 9f3d
00000250: e91a 6dbf c31f 9ebd 5899 e03d 2a8a 813e
00000260: 4c8c 873d d9a6 24be a881 773e bcf6 7cbe
00000270: 410d 33be b325 2a3e 3430 103e 874e 8c3e
00000280: 1cc6 77be dbf8 40be 5793 6fbf b60a 473e
00000290: 10dc fbbe 53d5 0bbe a42c babe 7e18 37be
000002a0: 273f 343e 967a bbbf cc04 ff3e 83ec ab3d
000002b0: 9d2e 883c 2505 08be 4df2 a7bd b631 08c0
000002c0: b69e 783e 4d1b c2be dac2 6f3e 8034 80bd
000002d0: 6fbe 25be 59b1 94be bde5 973b 6395 d7be
000002e0: 40f2 40bf 5017 8c3e 6d65 a53e 9587 c33d
000002f0: d077 80bf c762 6d3e 5125 37bf bfa2 bfbe
00000300: 0bae 69be f55a 58bd b8e5 823e 5d6e 1cbf
00000310: be54 8e3e d1ba 063e 3b74 223e 5468 d93d
00000320: 58c7 4cbf 7659 a3be f030 42be fb35 0abe
00000330: 9bfe 91bf ae6f 41bf 8761 a53d ff1b bcbc
00000340: 7c7a 32bd e534 c1be 68f1 1e3d a934 4a3e
00000350: bfc7 eabe b52c 003d 56f6 0a3c 430e db3c
00000360: 4779 8e3a 10dc c8be 8182 cfbe 8e1b fb3d
00000370: 250b 74be d1a0 9fbe 1a13 45be 83fb e0be
00000380: 7eb2 fe3c 6b80 933e 0f4b 9abc 97c1 c6be
00000390: f029 2bbd a48a 3ebe 8241 833e 18d5 f3bd
000003a0: 6169 593e e021 543e a452 d6bd 797c 333d
000003b0: 9564 903d 0a31 6a3e d563 2d3e ae53 203e
000003c0: a52f 793d 32e8 08bf 11ce 20bd e5e2 163d
000003d0: 53d8 b2bc e534 eebe edf9 1b3e 51ae b7be
000003e0: ac2d 01bd fb80 20be 4ad1 973e 27c6 743e
000003f0: 55fa 0cbf ff11 4abf 0193 b5bd 06c1 213e
-0.07456496 -0.01859052 -0.23327671 0.24328074 0.10845389 -0.94264543 -0.18896663 -0.069486745
-0.16342 0.15838511 -0.25402108 0.2594217 -0.19535336 0.36881378 -0.36433133 -0.51040864
0.2411257 0.4020051 -0.18748894 -1.0149945 -0.945849 -0.077521704 -0.48029473 0.3284461
-0.2302316 -0.4347854 -0.24472113 0.27927405 -0.5345139 -0.35295144 0.029931858 0.034749504
-1.0703717 -0.42384142 0.9313582 0.07021952 0.17118698 -0.50935143 0.21390152 0.096371464
-0.47145236 -0.16200733 0.0383445 -0.457869 -0.1920876 -0.039442766 0.33651388 -1.7391729
-0.07361258 -0.60265106 0.14108443 0.2284863 -0.04789623 -0.52352273 -0.085458376 -0.0144491475
-1.0791748 -0.012033941 0.12474741 0.09430821 0.28973898 -0.3895844 -0.26272264 0.26596418
0.15062313 0.29071757 0.10680094 0.33229813 0.23214193 0.20879292 -0.12302826 0.37814984
0.07222344 -0.45726144 0.084503755 -0.60502136 -1.4231744 -0.36704397 -0.40441802 0.022252016
-0.029307578 -0.38937542 -0.6476019 0.34833115 0.24248055 0.021209124 -0.10356292 0.06676572
-0.43047002 0.12170255 -0.33232766 0.23213752 -0.9625806 -0.786889 -0.08680553 -0.9459907
0.06888196 -0.11964497 0.32147828 -0.3656961 0.3839766 -0.3590279 -0.2768851 -0.37040892
0.12738165 0.11468503 0.060568895 0.38598117 -0.06290797 -0.120942615 0.30141324 0.14987594
-0.21985576 0.0065629445 -0.2583044 -1.0139211 0.011906008 -0.34034154 -0.70606244 -0.093473114
-0.33550423 -0.054848738 0.009203056 0.12608522 0.17028143 -0.19933707 0.24985513 0.104572065
0.0864341 -0.95122224 -0.1666632 0.2743887 -0.20914163 -0.10400963 0.15893823 -0.06619921
0.18800089 -0.10190436 0.046790298 0.122873165 -0.11288268 1.0345523 -0.2604079 -0.32574865
-0.17174445 -0.63579845 -0.29994914 0.07784021 -0.92619187 -0.07720902 0.10966748 0.25300723
0.066185564 -0.16079272 0.24170554 -0.24703497 -0.17485525 0.16615944 0.14080888 0.27403662
-0.24196666 -0.18844931 -0.935842 0.1943768 -0.49191332 -0.13655595 -0.36362183 -0.17880437
0.17602216 -1.4646785 0.49808347 0.083947204 0.01662379 -0.13283212 -0.08200512 -2.128034
0.24279293 -0.37911454 0.23414174 -0.062600136 -0.16185926 -0.29041556 0.0046355412 -0.4210616
-0.75369644 0.27361536 0.32303944 0.095473446 -1.0036564 0.23182212 -0.71541315 -0.37428853
-0.22820298 -0.05282112 0.25565886 -0.611059 0.27799028 0.13157202 0.15864651 0.10615602
-0.79991674 -0.3190419 -0.1896398 -0.13497154 -1.1405824 -0.75561035 0.080752425 -0.022962568
-0.04357384 -0.37735668 0.03880444 0.19746651 -0.4585552 0.031292636 0.008481583 0.026740199
0.0010869884 -0.39230394 -0.40529254 0.12261115 -0.23832376 -0.3117738 -0.19245568 -0.43941888
0.031090971 0.28808913 -0.018834619 -0.38819572 -0.04178804 -0.18607575 0.25635916 -0.11905879
0.21231605 0.20716047 -0.10464981 0.04381988 0.070504345 0.2287027 0.16932614 0.15656921
0.060836453 -0.534793 -0.03925902 0.036837477 -0.021831667 -0.4652473 0.15232058 -0.3587518
-0.031537697 -0.15674202 0.29651862 0.23903714 -0.55069476 -0.7893371 -0.088659294 0.15796289

linear_2.bias f4 [45]
00000000: 4b75 9ebe 108d ebbe 2e6d 2cbe cbb9 43bf
00000010: 82a8 27bf f909 e3be 1096 0ebf 64a7 1bbf
00000020: 7766 20bf 52cf 3fbf 8aa5 1cbf deda 6dbf
00000030: cc5e 13bf 8ff5 23bf 9c98 29bf 37a0 37bf
00000040: 3394 22bf ce5a 3ebf c712 0cbf 7997 0dbf
00000050: e090 f8be 68f5 28bf 2cf5 0bbf 4659 26bf
00000060: afd9 c7be f42f 38bf f9b6 f5be aaad 2abf
00000070: 4490 07bf bb2e 19bf 9914 febe 68b1 04bf
00000080: 508b 31bf f4a6 1bbf ac95 d3be 84da 5bbf
00000090: c4ee f0be 49ba debe 7c5f 12bf 7c7c ffbe
000000a0: ffa0 ddbe ee0e d9be 76e2 f5be 7e21 aebe
000000b0: 4cfa e1be
-0.30948862 -0.4600606 -0.16838524 -0.7645537 -0.654915 -0.44343546 -0.5569773 -0.6080229
-0.6265635 -0.7492572 -0.6119009 -0.9291209 -0.57566524 -0.6404657 -0.6624849 -0.71728843
-0.63507384 -0.74357307 -0.5471615 -0.55309254 -0.4854803 -0.6599946 -0.5467098 -0.6497997
-0.39033267 -0.7194817 -0.4799116 -0.6667124 -0.52954507 -0.5983693 -0.4962509 -0.518332
-0.693532 -0.60801625 -0.41325128 -0.85880303 -0.47057164 -0.435015 -0.5717695 -0.49899662
-0.43286893 -0.42394203 -0.48024338 -0.34009928 -0.44136274
