LogisticafterQTransform.pt (torch, 485287 bytes, 2 tensors)

linear_1.weight f4 [45, 2688]
0	0xbc08316b	-0.008312563
1	0xbc634771	-0.013872013
2	0x3c555b1c	0.01302221
3	0xbc667522	-0.014066013
4	0x3c5ea08e	0.013588084
5	0xbb673f97	-0.0035285705
6	0xbb9713cb	-0.004610514
7	0xbbc67671	-0.0060566
8	0x3c2ff428	0.010739364
9	0x3c7245c4	0.014787141
10	0xbb10d6c9	-0.0022100678
11	0xbbf2642a	-0.0073971944
12	0xbc8d764d	-0.017268324
13	0x3c046cfd	0.008082625
14	0xbc617aa9	-0.013762155
15	0xbc9ccf79	-0.0191419
16	0x3b4c7b8b	0.0031201567
17	0x3b2fe5c2	0.0026839827
18	0x3bcb3c2e	0.0062022423
19	0x3bb9ed3f	0.005674034
20	0x3c352b24	0.011057649
21	0xbcc3e593	-0.02391318
22	0x3b7ee00b	0.0038890864
23	0x3c39d14b	0.011341403
24	0xbc65c322	-0.014023574
25	0xbb9c2da6	-0.004766184
26	0x3bdb1b93	0.0066866367
27	0xbbe5cf48	-0.0070132352
28	0xbca02e2b	-0.019553265
29	0x3b803d04	0.0039135236
30	0x3c1842ab	0.009293239
31	0x3bde1a74	0.006778056
32	0xbc783a4f	-0.015150621
33	0x3c5b3e63	0.013381573
34	0xbbddc4d8	-0.0067678504
35	0xbc0ba243	-0.008522573
36	0xbba2814e	-0.004959262
37	0xbbbee7fb	-0.005825994
38	0x3c677c4a	0.014128754
39	0x3c2501d4	0.010071237
40	0xbbbb7bcd	-0.0057215453
41	0x3c4c6ea6	0.0124775525
42	0xbb978dfa	-0.004625079
43	0x3c0b7f1d	0.008514193
44	0x3a8f959b	0.001095462
45	0x3b846095	0.004039834
46	0xbc071f02	-0.008247139
47	0xbc54411f	-0.012954979
48	0xbc8ab834	-0.016933538
49	0xbb92171e	-0.004458322
50	0x3c6f1a97	0.014593742
51	0x3bc8642d	0.0061154575
52	0xba073280	-0.00051573664
53	0xbb8b2d46	-0.0042473404
54	0x3c3dd516	0.011586448
55	0x3c2edc46	0.0106726345
56	0x3c1527c1	0.009103716
57	0xbc99b58c	-0.018763326
58	0xbca5660c	-0.020190261
59	0x3b429cad	0.0029695437
60	0x3c64664f	0.013940408
61	0x3c160b4f	0.00915797
62	0xbc7a2dd1	-0.015269713
63	0xba01863a	-0.0004940961
64	0x3c7f0111	0.015564219
65	0x3c485bd5	0.012228926
66	0x3c81d951	0.015850695
67	0xbc630553	-0.01385625
68	0xbc370449	-0.011170455
69	0xbc0bf290	-0.008541718
70	0xbb39f0c2	-0.0028372263
71	0x3c02326b	0.007946591
72	0x3bc99e99	0.0061529395
73	0x3af2df27	0.0018529639
74	0x3b67089f	0.0035252941
75	0xbc3468b8	-0.011011295
76	0xb9453db3	-0.00018810369
77	0x3c511b52	0.012762861
78	0xbbc780f5	-0.006088371
79	0xbc2dd07a	-0.010608787
80	0xbbceeea2	-0.0063150683
81	0xbc2e7a58	-0.010649286
82	0x3c93a2e2	0.018022005
83	0x3c9253e3	0.017862266
84	0x3c09ae87	0.008403427
85	0x3ade454e	0.001695791
86	0xb9735aea	-0.00023208154
87	0xbc7871e4	-0.015163872
88	0xbc4a8b84	-0.012362365
89	0x3c1ad866	0.0094510075
90	0x3b4f5b6d	0.0031640187
91	0xbc86dd11	-0.016462835
92	0x3c7cccd2	0.015429692
93	0x3b2f9fe6	0.0026798188
94	0x3c8fa840	0.017536283
95	0xbc8465a8	-0.016161755
96	0x3c23e066	0.010002231
97	0x3bdf648a	0.006817405
98	0x3ac4b095	0.0015006239
99	0xbc3daf29	-0.011577406
100	0xbc5a30b6	-0.013317278
101	0xbc118f38	-0.008884244
102	0x3c41eff7	0.011836997
103	0xbb8ec8e1	-0.0043574427
104	0x3c8acc5b	0.016943147
105	0x3b915aa9	0.0044358564
106	0xbbe49bd1	-0.0069765826
107	0xbb91ee4d	-0.0044534565
108	0x3b8d98ad	0.004321179
109	0x3a0fe368	0.0005488903
110	0x3c8d1b89	0.017225044
111	0xbc00ae0a	-0.007853994
112	0xbba48bc6	-0.005021545
113	0xbb8582b1	-0.0040744175
114	0x3ba286f1	0.004959934
115	0x3c894334	0.016755678
116	0xbb392472	-0.0028250483
117	0xbbbe7937	-0.00581279
118	0xbbaee346	-0.0053371517
119	0xbc757599	-0.014981651
120	0x3c0d6643	0.008630338
121	0xbc25011b	-0.010071064
122	0x3c93717f	0.017998455
123	0x3c51e1ec	0.012810212
124	0xbc848ca7	-0.01618035
125	0xbc2bbdc7	-0.010482258
126	0x3c634c61	0.013873191
127	0x3c10e0de	0.008842675
128	0xbbd6c60e	-0.0065543717
129	0xbc8792a5	-0.016549418
130	0x3c46221e	0.012093095
131	0x3b44ad68	0.0030010585
132	0x3b3db417	0.0028946453
133	0xbac5983c	-0.0015075277
134	0xbba99d52	-0.0051762247
135	0x3c51ae70	0.012797937
136	0xbc1b2892	-0.009470122
137	0xbbeed6ef	-0.0072888057
138	0x3c6f926e	0.014622314
139	0xbc4b03ab	-0.012391011
140	0xbc1e60f7	-0.009666673
141	0xbc02c38e	-0.007981194
142	0x3b4293cd	0.0029690147
143	0x3c80b9d6	0.015713613
144	0x3bd137f9	0.0063848463
145	0xbc85fb47	-0.01635517
146	0x3bb0a2ee	0.0053905165
147	0xbbb5e469	-0.0055509103
148	0x3b9ee519	0.004849088
149	0x3c3f733b	0.011685188
150	0xbc9b82b8	-0.01898323
151	0xbbd690db	-0.00654803
152	0x3c198426	0.009369886
153	0x3c48a603	0.0122466115
154	0xbbfb7f9e	-0.0076751253
155	0xbba6027a	-0.005066213
156	0x3c298f12	0.010349052
157	0xbbb1250c	-0.0054060277
158	0xbaa9fe77	-0.0012969513
159	0xbc0b66c2	-0.008508386
160	0xbc4d4451	-0.012528495
161	0xbbd6604b	-0.0065422407
162	0xbc8e3d8c	-0.017363332
163	0x3c830428	0.015993193
164	0x3c8502f9	0.016236769
165	0x3c898c5d	0.016790563
166	0xbb0e275e	-0.0021690945
167	0xbc9a7352	-0.018853817
168	0x3c07588a	0.008260855
169	0x3c0a6899	0.00844779
170	0xbc8b687e	-0.0170176
171	0xbc126263	-0.00893459
172	0x3c8315f5	0.01600168
173	0xbc8311c4	-0.015999682
174	0x3c1e38fa	0.009657139
175	0x3b904e71	0.004403882
176	0x3c10e935	0.008844663
177	0xbc94b5eb	-0.018153151
178	0x3a036947	0.0005012941
179	0xbb228aa2	-0.002480187
180	0xbc6ee6f8	-0.014581434
181	0x3c5d3405	0.013501172
182	0x3b81cc89	0.00396115
183	0x3abdbcd5	0.0014475832
184	0x3c27a692	0.010232585
185	0x3ba8974a	0.005144988
186	0xbc958faf	-0.01825699
187	0x3bdfcde7	0.0068299654
188	0xbc8e8b30	-0.017400354
189	0xba8e1e5f	-0.0010842792
190	0x3bc5a0dc	0.006031139
191	0x39b2d25c	0.00034107536
192	0x3c2da1ff	0.010597705
193	0x3ab6f8fc	0.0013959701
194	0x3a2cecdf	0.0006596576
195	0xbc02eb7e	-0.007990716
196	0x3bd08f62	0.006364749
197	0xbc26e3d9	-0.010186159
198	0xbac28599	-0.0014840841
199	0xba826ed9	-0.0009951248
200	0x3c6bb0a7	0.014385379
201	0xbc547a8f	-0.012968673
202	0x3c21a38d	0.009865654
203	0xbbdeaaac	-0.006795248
204	0x3c90c2d4	0.017671026
205	0xbc3f29a3	-0.011667642
206	0x3ab13699	0.00135203
207	0xbc2c4f4d	-0.010516954
208	0x3c066be5	0.008204435
209	0x3c0c17c7	0.008550591
210	0x3c8cd1de	0.017189916
211	0xbc009595	-0.007848163
212	0xbc59c944	-0.013292614
213	0xbb95f05f	-0.0045757736
214	0x3cac9c4f	0.021070627
215	0xbb482b2b	-0.0030543308
216	0xbb36963b	-0.002786054
217	0xbc0173c5	-0.007901137
218	0x3b7c3bbe	0.0038487758
219	0x3c357ea3	0.011077556
220	0xbbb5f03a	-0.005552319
221	0x3ab860d9	0.0014066949
222	0x3ada2260	0.0016642325
223	0xbb6ac136	-0.003582073
224	0x3b0d5ff5	0.0021572087
225	0xbb840e7b	-0.0040300465
226	0xbc6b8378	-0.014374606
227	0xba154c24	-0.0005695245
228	0xba2b72fd	-0.0006540267
229	0xbac655a5	-0.0015131725
230	0x3c395d22	0.0113137085
231	0x3c3a4c67	0.011370755
232	0x3c173d24	0.009230886
233	0x3a3b09c8	0.00071349414
234	0xbc6827fc	-0.014169689
235	0xbc5a3d4b	-0.013320277
236	0xbc1e5f2e	-0.009666247
237	0xbc477111	-0.012172953
238	0x3aae75e2	0.0013310278
239	0x3c388f76	0.0112646725
240	0xbb0da324	-0.0021612132
241	0x3c28bdbf	0.010299145
242	0xbc0382fd	-0.0080268355
243	0x3c80200e	0.015640285
244	0xba7d0773	-0.0009652294
245	0xbc8ac426	-0.016939234
246	0xbc273af5	-0.010206928
247	0x38f5a142	0.00011712547
248	0x3c03cff6	0.008045187
249	0x3bb2778c	0.00544638
250	0xbc45f0fb	-0.01208138
251	0x3bc82fa4	0.006109195
252	0x3c39a320	0.011330396
253	0xbbb4bede	-0.005515917
254	0x3bc8f1cb	0.0061323396
255	0xbbaac286	-0.0052111773

linear_1.bias f4 [45]
0	0xbdca4340	-0.09876108
1	0xbdababfb	-0.08382412
2	0xbdc7a87b	-0.09748932
3	0xbde26a43	-0.11055424
4	0xbdf8983d	-0.12138412
5	0xbd9121d9	-0.07086534
6	0xbde33385	-0.11093811
7	0xbdbb1f3d	-0.091368176
8	0xbdbb638d	-0.09149847
9	0xbde8e04c	-0.11370906
10	0xbdaf05d2	-0.08546032
11	0xbdfa2004	-0.12213138
12	0xbdcb2b35	-0.099203505
13	0xbdb9e022	-0.09075953
14	0xbdcdfa4a	-0.100575045
15	0xbd954519	-0.0728857
16	0xbdbda127	-0.09259253
17	0xbdd9b7c9	-0.10630757
18	0xbd86b86c	-0.065781444
19	0xbdb5264f	-0.088451974
20	0xbdc2ab19	-0.095052905
21	0xbdd7ec17	-0.105430774
22	0xbd6af225	-0.057359833
23	0xbdce9e85	-0.10088829
24	0xbd9a873b	-0.075453244
25	0xbd87186c	-0.06596455
26	0xbdba4c25	-0.09096555
27	0xbda7db87	-0.081961684
28	0xbdb8deb4	-0.09026852
29	0xbdc1b724	-0.094587594
30	0xbd9d9c91	-0.07695878
31	0xbd9f643e	-0.077827916
32	0xbd70db0e	-0.058802657
33	0xbdab9e87	-0.08379846
34	0xbd92baaf	-0.07164513
35	0xbda4f263	-0.08054044
36	0xbda1ba92	-0.078969136
37	0xbdc9ec54	-0.09859529
38	0xbda02019	-0.07818622
39	0xbd722820	-0.059120297
40	0xbdc02549	-0.093821116
41	0xbd7b744d	-0.06139021
42	0xbdb1ef52	-0.08688225
43	0xbdc6ae48	-0.0970121
44	0xbdc2f79c	-0.09519884
